…
near(in_features=9216, out_features=4096, bias=True) (2): ReLU(inplace=True) (3): Dropout(p=0.5, inplace=False) (4): Linear(in_features=4096, out_features=4096, bias=True) (5): ReLU(inplace=True) (6): Linear(in_features=4096, out_features=1000, bias=True) ) 另外一种方式是使用 torchsummary，可以更直观，排版也更好看一些 如， import torch, torchvision from torchsummary import summary model = torchvision.models.vgg.vgg16() summary(model, (3, 224, 224)) ---------------------------------------------------------------- Layer (type) Output Shape Param # ================================================================ Conv2d-1 [-1, 64, 55, 55] 23,296 ReLU-2 [-1, 64, 55, 55] 0 MaxPool2d-3 [-1, 64, 27, 27] 0 Conv2d-4 [-1, 192, 27, 27] 307,392 ReLU-5 [-1, 192, 27, 27] 0 MaxPool2d-6 [-1, 192, 13, 13] 0 Conv2d-7 [-1, 384, 13, 13] 663,936 ReLU-8 [-1, 384, 13, 13] 0 Conv2d-9 [-1, 256, 13, 13] 884,992 ReLU-10 [-1, 256, 13, 13] 0 Conv2d-11 [-1, 256, 13, 13] 590,080 ReLU-12 [-1, 256, 13, 13] 0 MaxPool2d-13 [-1, 256, 6, 6] 0 AdaptiveAvgPool2d-14 [-1, 256, 6, 6] 0 Dropout-15 [-1, 9216] 0 Linear-16 [-1, 4096] 37,752,832 ReLU-17 [-1, 4096] 0 Dropout-18 [-1, 4096] 0 Linear-19 [-1, 4096] 16,781,312 ReLU-20 [-1, 4096] 0 Linear-21 [-1, 1000] 4,097,000 ================================================================ Total params: 61,100,840 Trainable params: 61,100,840 Non-trainable params: 0 ---------------------------------------------------------------- Input size (MB): 0.57 Forward/backward pass size (MB): 8.38 Params size (MB): 233.08 Estimated Total Size (MB): 242.03 ---------------------------------------------------------------- Tensorb
…
